…
&lt;span class="k"&gt;print&lt;/span&gt;&lt;span class="p"&gt;(&lt;/span&gt;&lt;span class="s1"&gt;&amp;#39;Test accuracy:&amp;#39;&lt;/span&gt;&lt;span class="p"&gt;,&lt;/span&gt; &lt;span class="n"&gt;score&lt;/span&gt;&lt;span class="p"&gt;[&lt;/span&gt;&lt;span class="mi"&gt;1&lt;/span&gt;&lt;span class="p"&gt;])&lt;/span&gt;
&lt;/pre&gt;&lt;/div&gt;


&lt;div class="highlight"&gt;&lt;pre&gt;&lt;span&gt;&lt;/span&gt;____________________________________________________________________________________________________
Layer (type)                     Output Shape          Param #     Connected to                     
====================================================================================================
convolution2d_1 (Convolution2D)  (None, 16, 78, 16)    160         convolution2d_input_1[0][0]      
____________________________________________________________________________________________________
activation_1 (Activation)        (None, 16, 78, 16)    0           convolution2d_1[0][0]            
____________________________________________________________________________________________________
convolution2d_2 (Convolution2D)  (None, 14, 76, 8)     1160        activation_1[0][0]               
____________________________________________________________________________________________________
activation_2 (Activation)        (None, 14, 76, 8)     0           convolution2d_2[0][0]            
____________________________________________________________________________________________________
convolution2d_3 (Convolution2D)  (None, 12, 74, 4)     292         activation_2[0][0]               
____________________________________________________________________________________________________
activation_3 (Activation)        (None, 12, 74, 4)     0           convolution2d_3[0][0]            
____________________________________________________________________________________________________
convolution2d_4 (Convolution2D)  (None, 10, 72, 2)     74          activation_3[0][0]               
____________________________________________________________________________________________________
activation_4 (Activation)        (None, 10, 72, 2)     0           convolution2d_4[0][0]            
____________________________________________________________________________________________________
maxpooling2d_1 (MaxPooling2D)    (None, 5, 36, 2)      0           activation_4[0][0]               
____________________________________________________________________________________________________
dropout_1 (Dropout)              (None, 5, 36, 2)      0           maxpooling2d_1[0][0]             
____________________________________________________________________________________________________
flatten_1 (Flatten)              (None, 360)           0           dropout_1[0][0]                  
____________________________________________________________________________________________________
dense_1 (Dense)                  (None, 16)            5776        flatten_1[0][0]                  
____________________________________________________________________________________________________
activation_5 (Activation)        (None, 16)            0           dense_1[0][0]                    
____________________________________________________________________________________________________
dense_2 (Dense)                  (None, 16)            272         activation_5[0][0]               
____________________________________________________________________________________________________
activation_6 (Activation)        (None, 16)            0           dense_2[0][0]                    
____________________________________________________________________________________________________
dense_3 (Dense)                  (None, 16)            272         activation_6[0][0]               
____________________________________________________________________________________________________
activation_7 (Activation)        (None, 16)            0           dense_3[0][0]                    
____________________________________________________________________________________________________
dropout_2 (Dropout)              (None, 16)            0           activation_7[0][0]               
____________________________________________________________________________________________________
dense_4 (Dense)                  (None, 1)             17          dropout_2[0][0]                  
====================================================================================================
Total params: 8023
____________________________________________________________________________________________________
Train on 18406 samples, validate on 7889 samples
Epoch 1/20
18406/18406 [==============================] - 31s - loss: 0.2418 - acc: 0.4669 - val_loss: 0.1472 - val_acc: 0.5031
…
